saved_weights.pt (torch, 209854 bytes, 10 tensors)

weight_ih_l0 f4 [256, 4]
-0.09493586 0.07014822 0.123364404 0.10659328 -0.06826033 -0.02801807 -0.0041272817 -0.03722765
0.038234748 0.034402367 -0.08134084 -0.118347265 -0.09700522 -0.104511224 -0.004666704 -0.0037815531
-0.018786056 -0.03014929 -0.083391994 0.038103476 -0.02272546 0.12942585 0.18581001 0.06865603
0.04560004 0.012310018 -0.13483575 -0.041724384 -0.14429046 0.017624898 -0.09562679 -0.03362831
-0.037241086 -0.0043853126 0.14407884 -0.006294386 -0.058198236 0.0060689487 0.091276236 -0.093782306
0.19257928 0.20151305 0.01899906 0.202965 0.03627269 -0.036829814 -0.056675263 0.1262572
-0.011218526 -0.09850209 -0.03640036 -0.08117066 0.022958543 0.033424735 0.028506361 0.08185268
0.07633326 0.11307699 0.15536165 0.16906342 0.12160827 0.11685692 -0.0755081 0.14556722
0.13199909 0.052857146 0.09798751 0.08855629 0.04836742 0.0582599 0.10250543 -0.020192508
-0.017442409 0.08981819 0.05078905 0.14525385 0.07027622 0.047863115 0.17359069 -0.025235713
-0.04959325 0.12183988 0.092495784 0.08081725 -0.033424307 0.029339641 -0.028739106 -0.016899271
0.01699893 -0.03452827 0.06386401 -0.009689975 -0.08615971 0.03173613 -0.05765412 -0.040657774
-0.019860635 -0.028463313 0.1307713 0.16312605 0.09360092 -0.058242373 0.04456213 0.1413591
-0.0037660168 -0.100845054 0.06849435 -0.14846611 0.14974546 0.0023365554 -0.033731867 0.20922652
-0.092618264 0.13284834 0.001538867 -0.04659395 0.099520154 0.026794137 0.13802248 -0.009705067
0.13713191 0.04088178 0.0516859 0.114264525 -0.018202908 -0.02626797 0.062530145 0.034497607
-0.03350684 -0.059292838 -0.03359294 0.036808744 -0.009326313 -0.04359776 0.0486832 0.026540123
-0.11184135 0.1098584 -0.043260787 -0.091445774 0.10087096 -0.051202394 0.036552258 0.11426943
-0.055357646 0.18214644 0.01312701 0.10015636 0.007906112 -0.13278455 -0.088381864 0.081249885
0.0745195 0.05706322 -0.07212765 0.14749257 0.082184486 0.036046285 0.030060159 0.11221936
-0.019242018 -0.02441921 0.0068104547 -0.16625856 -0.0034224812 0.0005152532 0.054449085 0.041696083
-0.045135386 0.048961934 -0.069253445 0.10974409 0.13694549 -0.0012876994 0.027332949 0.0699583
0.058946602 0.100869104 -0.08818705 0.12823418 0.15251009 -0.022494737 0.071598604 0.0035045706
-0.040587317 -0.09095656 0.00050889695 -0.064164944 -0.021720879 -0.011426735 -0.0039630667 -0.10192131
0.044519756 -0.05608035 0.05322791 -0.034288067 0.103212476 0.0003678101 -0.022706714 -0.018554209
-0.044734932 0.04221256 0.10247787 0.09748781 0.08156986 -0.034773294 0.1466697 -0.0176116
-0.048080318 0.061971404 0.17031278 -0.025108011 0.045005 0.012606956 0.08346269 0.04923268
0.023766702 -0.025853546 0.009621245 0.13811278 -0.01866087 -0.057532545 -0.13213496 0.0050909165
0.012175629 0.035119124 0.0791228 0.0017538227 -0.025308423 -0.06281748 0.028119186 0.01586519
-0.051722825 -0.08041379 -0.04062783 -0.04519626 0.099741645 0.059949785 -0.005103239 -0.0023020972
0.05914538 -0.05669316 -0.11479209 -0.17632727 0.12527525 0.027896877 0.119773425 -0.0750467
-0.054590378 -0.15506412 -0.038705815 -0.005837161 0.011527545 -0.10736178 0.08477462 -0.12634651
00000000: bb6d c2bd dfa9 8f3d 7aa6 fc3d 944d da3d
00000010: 12cc 8bbd 2786 e5bc 263e 87bb 057c 18bd
00000020: 0a9c 1c3d 7fe9 0c3d 0796 a6bd 0d60 f2bd
00000030: acaa c6bd fb09 d6bd 27eb 98bb efd3 77bb
00000040: 37e5 99bc a5fb f6bc 6cc9 aabd 6412 1c3d
00000050: be2a babc 3688 043e fb44 3e3e 889b 8c3d
00000060: 1cc7 3a3d f5af 493c 6212 0abe 30e7 2abd
00000070: e1c0 13be 1762 903c fad7 c3bd d7bd 09bd
00000080: 1c8a 18bd abb2 8fbb 6789 133e 2341 cebb
00000090: 4661 6ebd 08de c63b 09ef ba3d f010 c0bd
000000a0: 8133 453e 7059 4e3e eba3 9b3c 0fd6 4f3e
000000b0: ac92 143d dcda 16bd 5224 68bd 9149 013e
000000c0: e9cd 37bc 77bb c9bd 8b18 15bd ce3c a6bd
000000d0: 8e13 bc3c 60e8 083d 2c86 e93c 61a2 a73d
000000e0: 9d54 9c3d e994 e73d 2017 1f3e f61e 2d3e
000000f0: c20d f93d ae52 ef3d fea3 9abd 930f 153e
00000100: c52a 073e bc80 583d adad c83d 005d b53d
00000110: ea1c 463d efa1 6e3d 5eee d13d c26a a5bc
00000120: 62e3 8ebc 99f2 b73d 2e08 503d 6dbd 143e
00000130: fbec 8f3d 1d0c 443d c2c1 313e 20bb cebc
00000140: 4b22 4bbd 3087 f93d 6e6e bd3d 8483 a53d
00000150: ede7 08bd b059 f03c 466e ebbc 5770 8abc
00000160: 5741 8b3c 846d 0dbd 22cb 823d b3c2 1ebc
00000170: 8174 b0bd bffd 013d ba26 6cbd c488 26bd
00000180: c5b2 a2bc e52b e9bc e9e8 053e 840a 273e
00000190: d7b1 bf3d 8e8f 6ebd c886 363d 71c0 103e
000001a0: 47cf 76bb da87 cebd c446 8c3d 8007 18be
000001b0: e056 193e e520 193b 6d2a 0abd 7a3f 563e
000001c0: a5ae bdbd 6509 083e cfb3 c93a 4cd9 3ebd
000001d0: 39d1 cb3d 617f db3c c455 0d3e 0002 1fbc
000001e0: 4f6c 0c3e a773 273d 98b4 533d 8503 ea3d
000001f0: 441e 95bc ed2f d7bc ce0f 803d 5d4d 0d3d
00000200: 783e 09bd 0cdd 72bd c098 09bd c4c4 163d
00000210: 64cd 18bc 9193 32bd 0968 473d ac6a d93c
00000220: 140d e5bd 71fd e03d 3932 31bd ec47 bbbd
00000230: 6f95 ce3d 9ab9 51bd d2b7 153d 1706 ea3d
00000240: b3be 62bd 9984 3a3e ac12 573c c71e cd3d
00000250: a388 013c acf8 07be 8d01 b5bd 5766 a63d
00000260: ae9d 983d 1fbb 693d a9b7 93bd 4b08 173e
00000270: 5750 a83d 45a5 133d b940 f63c 44d3 e53d
00000280: 70a1 9dbc cc0a c8bc 3c2a df3b af3f 2abe
00000290: b54b 60bb 0f12 073a 0106 5f3d 83c9 2a3d
000002a0: e2df 38bd 4f8c 483d c0d4 8dbd 82c1 e03d
000002b0: 703b 0c3e 06c8 a8ba 59e9 df3c 4c46 8f3d
000002c0: fe71 713d 7694 ce3d 699b b4bd d24f 033e
000002d0: 9b2b 1c3e e246 b8bc 4aa2 923d f0ac 653b
000002e0: e33e 26bd 6f47 babd 7f67 053a e968 83bd
000002f0: fcef b1bc 3337 3bbc 9ddc 81bb 1fbc d0bd
00000300: 595a 363d 82b4 65bd 8205 5a3d a571 0cbd
00000310: 1061 d33d a3d6 c039 6e03 babc fffe 97bc
00000320: fa3b 37bd 14e7 2c3d ebdf d13d b0a7 c73d
00000330: 190e a73d 716e 0ebd 9530 163e 3446 90bc
00000340: deef 44bd bad5 7d3d 7966 2e3e 51af cdbc
00000350: 2a57 383d 688d 4e3c 7dee aa3d 35a8 493d
00000360: 63b2 c23c d1ca d3bc 6da2 1d3c 706d 0d3e
00000370: aede 98bc 3fa7 6bbd 634e 07be b4d1 a63b
00000380: 4a7c 473c 12d9 0f3d 220b a23d 86e0 e53a
00000390: 9c53 cfbc 73a6 80bd 355a e63c b7f7 813c
000003a0: 50db 53bd fcaf a4bd 5e69 26bd b71f 39bd
000003b0: 5945 cc3d e88d 753d 1239 a7bb c8de 16bb
000003c0: 6d42 723d 1637 68bd 1e18 ebbd 238f 34be
000003d0: 2848 003e fe87 e43c c54b f53d 16b2 99bd
000003e0: 299a 5fbd 21c9 1ebe fd89 1ebd a845 bfbb
000003f0: 07de 3c3c 7ee0 dbbd 519e ad3d fb60 01be

weight_hh_l0 f4 [256, 64]
0.07386406 -0.026688345 -0.093750425 0.02597859 -0.07796035 -0.13988738 -0.045501158 -0.13768838
-0.03723297 -0.08525211 -0.13656083 -0.13134904 0.100632675 -0.019690868 0.089899376 -0.04915076
0.14447626 -0.0065534636 -0.022521447 -0.07099765 -0.04318712 -0.0039936826 -0.024355635 0.107997686
-0.067110576 0.13347223 -0.10116056 0.06766808 -0.15061437 -0.06844675 0.14038229 -0.017416142
0.03666654 -0.08322603 0.036853503 0.06044268 0.09611488 0.031526763 -0.006998423 -0.02044132
-0.23249191 -0.04049387 0.046828687 0.09153626 0.0312868 -0.051420223 -0.12886149 -0.012678023
0.03251472 0.010882272 0.087099046 -0.10290416 0.07243933 -0.04331526 0.00075671484 0.11116965
-0.061312065 -0.11690635 0.012857234 -0.122436464 0.0031945128 -0.09770348 0.02012866 0.11524617
-0.0803145 0.19638987 -0.09118145 -0.043290928 -0.017033102 -0.061452582 -0.08099309 -0.053354047
0.017301217 -0.08585767 0.02340903 -0.05585462 -0.11595041 -0.06666614 -0.06598205 -0.06336903
0.053585958 0.06367733 -0.03783606 -0.06828701 0.0084749935 -0.021772163 -0.11692464 0.1467825
0.023621026 -0.14188622 0.06749155 -0.05420076 -0.15576623 -0.042153776 0.14183691 -0.25140977
0.09716028 0.061999753 -0.17257598 -0.17661516 -0.109794304 0.009731531 0.05260935 0.11776476
-0.16866869 0.05469679 -0.058569405 0.014195263 0.21329437 -0.2645075 -0.053294055 0.0445011
-0.12330074 0.19998701 -0.081122 0.13227125 -0.07046666 -0.008819195 -0.12649415 0.10126752
0.07554992 -0.20686574 -0.005187848 -0.23002946 0.012449467 -0.13597469 -0.0186299 -0.06269643
0.056012146 -0.07507393 0.09200178 0.15703206 0.0320999 -0.07523198 -0.16020013 -0.11796889
0.048303735 0.13963601 -0.102608435 0.00942399 -0.021452878 -0.05614077 -0.083573855 0.037933867
-0.020132251 -0.042867452 0.09722637 0.11854219 -0.11340816 -0.11843745 0.1618893 0.017439505
-0.09564438 0.092231795 0.024952926 0.11564353 -0.11707006 -0.0010453018 0.052503414 -0.061891984
0.17107484 -0.06614243 -0.088854 -0.10876402 -0.02434543 0.029347965 -0.026776811 0.16380382
-0.14684065 -0.111000955 -0.0044329306 -0.14793555 -0.0069729825 -0.0147105185 0.019380134 -0.06223895
0.18981054 0.10012485 0.005523841 -0.046266675 0.11873814 -0.095788606 0.15106452 0.035472594
-0.12163591 -0.098338835 -0.03389575 -0.08065084 -0.01548107 -0.0131964 -0.046001792 -0.17804655
0.031989843 0.087627426 -0.056648307 0.10410162 0.006223198 -0.101501174 -0.079794094 -0.05210755
-0.0065599256 -0.16683778 -0.09401264 -0.046838064 -0.04262381 0.073289044 0.1466743 -0.1908983
-0.060674343 0.1955361 -0.15855898 -0.10592363 0.1517639 0.113991976 0.11052058 -0.058922008
0.12571025 0.077592805 0.004642434 0.18043096 -0.12686935 -0.03287672 0.13338776 0.06732058
0.075665876 0.08170519 0.09589683 -0.022904634 0.018939473 -0.009874668 0.012841276 0.06338017
-0.03458445 0.18340057 -0.012184545 -0.004298261 0.030368136 -0.23123085 0.07836452 -0.118397474
0.09820061 0.027595818 -0.06378409 -0.0017064912 -0.14645706 0.010602863 -0.17629372 0.117684394
-0.14273983 0.03337078 -0.077966325 0.030448264 0.042251855 0.05483981 0.013738262 -0.026085079
00000000: 0a46 973d 84a1 dabc 3900 c0bd 0dd1 d43c
00000010: ada9 9fbd a33e 0fbe 6c5f 3abd 2ffe 0cbe
00000020: 9981 18bd a998 aebd 9ad6 0bbe 5d80 06be
00000030: 8118 ce3d be4e a1bc 2a1d b83d 4f52 49bd
00000040: 96f1 133e 70be d6bb e67e b8bc 3767 91bd
00000050: fae4 30bd 70dd 82bb 7885 c7bc e42d dd3d
00000060: 4571 89bd f2ac 083e 452d cfbd 9095 8a3d
00000070: a73a 1abe cf2d 8cbd 60c0 0f3e 4cac 8ebc
00000080: a72f 163d 6972 aabd b3f3 163d be92 773d
00000090: e1d7 c43d 3522 013d 0753 e5bb 8e74 a7bc
000000a0: 5c12 6ebe e6dc 25bd 70cf 3f3d 5d77 bb3d
000000b0: 9626 003d 039e 52bd 44f4 03be 7cb7 4fbc
000000c0: 282e 053d 8f4b 323c fc60 b23d 6bbf d2bd
000000d0: 125b 943d 586b 31bd 465e 463a eaac e33d
000000e0: 5c22 7bbd 996c efbd 26a7 523c f8bf fabd
000000f0: 085b 513b c318 c8bd dce4 a43c 2f06 ec3d
00000100: ee7b a4bd 6d1a 493e 57bd babd d451 31bd
00000110: 0189 8bbc b4b5 7bbd b5df a5bd c689 5abd
00000120: 48bb 8d3c 25d6 afbd 4bc4 bf3c d0c7 64bd
00000130: 6977 edbd 4288 88bd 9921 87bd 9fc7 81bd
00000140: f37c 5b3d 4369 823d fcf9 1abd 0fda 8bbd
00000150: b3da 0a3c 895b b2bc 3076 efbd 274e 163e
00000160: e280 c13c 9f4a 11be 0339 8a3d 9e01 5ebd
00000170: 2f81 1fbe 70a9 2cbd b23d 113e c8b8 80be
00000180: f8fb c63d 74f3 7d3d c2b7 30be 9bda 34be
00000190: d6db e0bd 0071 1f3c e77c 573d a72e f13d
000001a0: 7cb7 2cbe be09 603d 79e6 6fbd 4093 683c
000001b0: d769 5a3e 876d 87be de4a 5abd c946 363d
000001c0: 1985 fcbd 65c9 4c3e 4b23 a6bd 1d72 073e
000001d0: d350 90bd 637e 10bc af87 01be 5865 cf3d
000001e0: ebb9 9a3d 9dd4 53be d3fe a9bb d88c 6bbe
000001f0: d9f8 4b3c f33c 0bbe bb9d 98bc fc66 80bd
00000200: fe6c 653d 5cc0 99bd 6e6b bc3d 03cd 203e
00000210: 2f7b 033d 3913 9abd 810b 24be ac99 f1bd
00000220: 23da 453d befc 0e3e 5f24 d2bd 1467 1a3c
00000230: f2bd afbc ddf3 65bd c528 abbd 8b60 1b3d
00000240: 64ec a4bc c895 2fbd 9e1e c73d 3fc6 f23d
00000250: 8a42 e8bd 558f f2bd 4fc6 253e 4bdd 8e3c
00000260: 33e1 c3bd 06e4 bc3d 146a cc3c 84d6 ec3d
00000270: 6dc2 efbd 8202 89ba d20d 573d 7382 7dbd
00000280: 3e2e 2f3e af75 87bd 16f9 b5bd acbf debd
00000290: 1170 c7bc 256b f03c 0b5b dbbc 30bc 273e
000002a0: 655d 16be 7854 e3bd 1e42 91bb 6b7c 17be
000002b0: 9e7d e4bb 6304 71bc 16c3 9e3c 45ee 7ebd
000002c0: b25d 423e 420e cd3d 5601 b53b 2082 3dbd
000002d0: fb2c f33d d12c c4bd a8b0 1a3e b64b 113d
000002e0: 3f1c f9bd df65 c9bd 45d6 0abd 452c a5bd
000002f0: 50a4 7dbc b735 58bc 606c 3cbd d651 36be
00000300: c807 033d 0276 b33d 0e08 68bd 3b33 d53d
00000310: f8eb cb3b d9df cfbd 166b a3bd ba6e 55bd
00000320: a5f4 d6bb 86d7 2abe b389 c0bd 45d9 3fbd
00000330: 4e96 2ebd 9118 963d ca31 163e d87a 43be
00000340: a985 78bd 9e3a 483e 495d 22be 7dee d8bd
00000350: ff67 1b3e a074 e93d 9d58 e23d 3458 71bd
00000360: 30ba 003e fae8 9e3d 8f1f 983b e5c2 383e
00000370: 0aea 01be bda9 06bd cd96 083e 5fdf 893d
00000380: b6f6 9a3d 0d55 a73d 8f65 c43d 80a2 bbbc
00000390: f426 9b3c 5cc9 21bc 3764 523c 76cd 813d
000003a0: 6da8 0dbd 5ccd 3b3e b0a1 47bc 6dd8 8cbb
000003b0: 99c6 f83c c8c7 6cbe 947d a03d 607a f2bd
000003c0: 671d c93d a010 e23c 3ca1 82bd 58ac dfba
000003d0: d7f8 15be a1b7 2d3c 5786 34be 8404 f13d
000003e0: 642a 12be cdaf 083d cfac 9fbd a36e f93c
000003f0: 4810 2d3d b59f 603d 7216 613c 60b0 d5bc

bias_ih_l0 f4 [256]
0.114781685 0.027182281 -0.018940978 0.12184004 0.14807022 0.043423317 0.123424694 -0.0149441175
0.103771284 0.15877333 0.1474214 -0.023007005 -0.077770405 0.03444242 0.07793778 -0.06633128
-0.043059006 0.09102042 0.093060315 -0.029469725 -0.05433863 0.12465768 0.005310226 0.14796418
-0.05576134 0.028354645 -0.06748374 -0.009761923 -0.028832529 -0.10793352 0.122630544 -0.05759729
-0.0804137 -0.06698297 0.13994181 0.04192347 -0.048360888 0.15691967 0.118865356 0.04083371
-0.026249494 -0.023951825 0.07147234 0.08688131 -0.015627332 0.16120678 -0.00043690996 0.08843547
-0.0389297 -0.022195663 -0.0750512 0.026658267 0.03418087 -0.16942376 0.07924288 -0.14257672
0.13919243 0.098958805 0.029421886 -0.07699412 -0.011782878 0.02287445 -0.10093925 0.08402038
0.14002502 0.080178194 -0.091628894 0.010428871 0.018621692 0.05468375 -0.06811219 -0.09829842
-0.087063506 0.13163242 0.20897299 -0.008545318 -0.039306205 -0.010046569 -0.04876178 -0.110745534
0.0040223408 -0.0022782162 0.028337086 0.16930504 0.13108881 0.16786906 0.068444066 0.09149106
0.10703164 0.080409564 -0.10183393 0.1768008 0.107248835 -0.065587215 0.102097005 0.015477781
0.041238002 0.020700969 -0.08794734 0.020460505 0.06396827 0.0063119326 0.12117632 0.07814319
0.04202863 -0.04075402 0.053552378 0.07253546 -0.062303036 0.01929211 0.030082915 -0.1360438
0.14242603 0.14221236 -0.14629048 0.12700415 0.029378107 0.1244936 0.15944518 -0.12970419
-0.045249153 0.1549828 -0.012360372 -0.039158583 0.03491046 -0.05596153 -0.025966395 -0.053775746
-0.14941344 0.10960909 -0.045959227 0.07296939 0.015061711 -0.010226132 0.03893769 0.07289077
-0.16745257 0.12099488 -0.17213793 0.041882988 -0.114180446 0.07737235 -0.07497692 0.20317121
-0.046287846 -0.0788576 0.042945508 0.14934367 -0.11421021 -0.00048001698 -0.10413491 -0.08378363
-0.09890774 0.056664534 -0.031314783 -0.06193739 -0.1229334 -0.08776403 0.030617315 -0.032857746
-0.023858836 0.13706087 -0.13729829 -0.06918953 -0.057621747 -0.052913368 0.024886338 -0.060938954
-0.07816278 0.11060912 0.18067099 -0.001472065 -0.013257878 0.07319301 0.08356682 -0.053295713
0.1069863 -0.15146603 0.022610173 0.16250338 -0.07882215 0.04432308 0.107868955 0.082233585
-0.009329962 -0.047964085 -0.09666555 -0.10801987 0.06451809 0.11018587 -0.05293769 -0.14328347
0.029911762 -0.05226155 0.080020495 0.116810456 0.005261195 0.07747307 -0.11609325 0.037682675
-0.114212215 0.17128049 0.04389425 0.1242322 -0.07254324 0.00024414243 -0.00031014968 0.13354136
0.17898546 0.093642764 0.11856037 0.13212362 0.19998021 0.061711796 -0.0012692461 -0.1000035
0.18985921 0.17934558 -0.071852654 0.18759674 0.061376512 -0.09140127 0.09693084 -0.029552316
0.0788031 -0.117174655 -0.11151815 0.04968518 0.22039656 -0.047036156 -0.10807596 -0.06420973
0.11002081 -0.15683751 0.04922969 0.17736086 -0.09279391 0.04201214 0.10496369 -0.09110513
0.1056958 0.11412752 -0.11508819 0.11962121 0.102148674 0.12651707 -0.06413453 -0.083433144
0.10229187 0.021821596 0.051899925 -0.1188947 0.023066195 -0.04243387 0.026705557 0.015028616
00000000: a912 eb3d 60ad de3c 1c2a 9bbc 4587 f93d
00000010: b89f 173e a6dc 313d 16c6 fc3d 2cd8 74bc
00000020: 0a86 d43d 7a95 223e a3f5 163e 3079 bcbc
00000030: 1746 9fbd 7f13 0d3d d89d 9f3d b2d8 87bd
00000040: a45e 30bd ea68 ba3d 6896 be3d 7e6a f1bc
00000050: 2f92 5ebd 874c ff3d 6801 ae3b ec83 173e
00000060: 0166 64bd 0048 e83c ea34 8abd 79f0 1fbc
00000070: 3232 ecbc 400c ddbd b925 fb3d 23eb 6bbd
00000080: f0af a4bd 5e2e 89bd e84c 0f3e f2b7 2b3d
00000090: 1116 46bd 8daf 203e ae6f f33d 4041 273d
000000a0: 2e09 d7bc 9e36 c4bc 1760 923d d4ee b13d
000000b0: e404 80bc 6413 253e 1011 e5b9 a81d b53d
000000c0: c074 1fbd aed3 b5bc 72b4 99bd 7062 da3c
000000d0: 3d01 0c3d 6c7d 2dbe 174a a23d a2ff 11be
000000e0: 7688 0e3e eaaa ca3d 2b06 f13c 18af 9dbd
000000f0: f90c 41bc 3363 bb3c 3db9 cebd e112 ac3d
00000100: b862 0f3e 7734 a43d eea7 bbbd dbdd 2a3c
00000110: 858c 983c 11fc 5f3d 677e 8bbd af50 c9bd
00000120: 5a4e b2bd a6ca 063e 04fd 553e a901 0cbc
00000130: 8bff 20bd 5d9a 24bc 6fba 47bd 8ece e2bd
00000140: d7cd 833b 204e 15bb 2d23 e83c 4d5e 2d3e
00000150: 253c 063e dee5 2b3e 672c 8c3d aa5f bb3d
00000160: 6833 db3d c5ad a43d 4f8e d0bd 450b 353e
00000170: 47a5 db3d 9752 86bd 3c18 d13d 8596 7d3c
00000180: 2ee9 283d 1495 a93c bc1d b4bd ca9c a73c
00000190: cc01 833d 54d4 ce3b 4a2b f83d 8909 a03d
000001a0: 3626 2c3d b0ed 26bd bd59 5b3d 798d 943d
000001b0: 7831 7fbd 7d0a 9e3c 7270 f63c 114f 0bbe
000001c0: 21d8 113e 1ea0 113e 2ccd 15be 600d 023e
000001d0: 5baa f03c 80f6 fe3d 9945 233e 2dd1 04be
000001e0: 2d57 39bd d0b3 1e3e 2883 4abc c064 20bd
000001f0: 45fe 0e3d eb37 65bd 7ab7 d4bc f543 5cbd
00000200: d6ff 18be bb7a e03d be3f 3cbd fa70 953d
00000210: 65c5 763c 828b 27bc 217d 1f3d c247 953d
00000220: b078 2bbe 2acc f73d ed44 30be 7f8d 2b3d
00000230: 70d7 e9bd 6575 9e3d 808d 99bd 1d0c 503e
00000240: 5398 3dbd 1880 a1bd a1e7 2f3d 8ced 183e
00000250: 0be7 e9bd caaa fbb9 af44 d5bd c096 abbd
00000260: 2490 cabd 1219 683d ee43 00bd 10b2 7dbd
00000270: 82c4 fbbd a1bd b3bd 2ad1 fa3c d895 06bd
00000280: 9b73 c3bc af59 0c3e ec97 0cbe 3eb3 8dbd
00000290: c804 6cbd b0bb 58bd 6fde cb3c 209b 79bd
000002a0: cf13 a0bd 0987 e23d d101 393e 4ef2 c0ba
000002b0: 9237 59bc 38e6 953d 1525 ab3d 9b4c 5abd
000002c0: a21b db3d e919 1bbe f838 b93c 4967 263e
000002d0: 826d a1bd 1e8c 353d 66ea dc3d 156a a83d
000002e0: b2dc 18bc fd75 44bd 96f8 c5bd 8639 ddbd
000002f0: 0f22 843d 21a9 e13d 31d5 58bd e7b8 12be
00000300: 8309 f53c 3510 56bd c9e1 a33d 523a ef3d
00000310: 1a66 ac3b 33aa 9e3d 4cc2 edbd 2659 1a3d
00000320: 18e8 e9bd 2764 2f3e 75ca 333d 746d fe3d
00000330: 8d91 94bd 3e00 8039 969b a2b9 11bf 083e
00000340: f747 373e c7c7 bf3d c7cf f23d 6a4b 073e
00000350: 9dc7 4c3e 82c5 7c3d d55c a6ba a3ce ccbd
00000360: 746a 423e 5ea6 373e 7c27 93bd 5c19 403e
00000370: f065 7b3d 9730 bbbd ad83 c63d b317 f2bc
00000380: 8563 a13d 44f9 efbd a163 e4bd b082 4b3d
00000390: a3af 613e fca8 40bd ee56 ddbd 6480 83bd
000003a0: 9752 e13d 039a 20be 12a5 493d 169e 353e
000003b0: bc0a bebd ec14 2c3d 34f7 d63d 5495 babd
000003c0: 0a77 d83d b0bb e93d 5bb3 ebbd f7fb f43d
000003d0: 5333 d13d b18d 013e f758 83bd ffde aabd
000003e0: 667e d13d 34c3 b23c 0495 543d 117f f3bd
000003f0: 51f5 bc3c 23cf 2dbd 9dc5 da3c 963a 763c

bias_hh_l0 f4 [256]
-0.06222928 0.02098487 0.05729123 0.074918345 0.083431855 0.055485185 -0.097049884 -0.12123495
-0.01071321 0.017929554 0.070450835 0.18306866 0.09748671 0.008818125 0.03623002 0.0129707
0.17946523 0.06876284 0.015091368 0.17322943 0.025626969 0.16140522 -0.0873955 -0.060698796
0.08086671 0.08332056 0.08844697 0.16804752 0.021035986 0.1382677 -0.0008893793 0.103132576
-0.115989275 -0.02498675 0.033597652 0.0331431 0.06736122 -0.0027886408 0.09923571 -0.09691934
-0.010585333 -0.15283065 0.15618187 -0.021200817 -0.01758683 0.069085866 0.12070766 0.0010025853
0.09307136 0.17026697 -0.16161686 0.022256654 -0.054728873 -0.044682648 0.09513356 -0.1592301
0.045852814 0.04211293 0.09542361 -0.07042244 -0.081119046 0.04965784 -0.06706774 -0.011995694
-0.04515409 0.20151012 0.15496852 -0.036186498 0.08239563 0.1590427 -0.026029272 -0.1442193
-0.083114386 0.09573425 0.23395897 0.08564834 -0.07604066 -0.12155947 0.05329243 0.06826959
0.2376173 -0.014416548 0.008687069 0.08631843 -0.03397261 0.13220887 -0.035279382 0.09383258
0.02642221 0.0009693946 0.11011547 -0.04877298 0.08717402 0.008543602 0.03706302 0.060033593
0.097229265 0.10600877 0.05204321 0.051998295 0.17978746 -0.046743456 0.022656068 -0.038206246
0.112452485 -0.15045129 0.049428985 -0.037728507 -0.13731718 0.060772564 0.07759451 0.035682507
-0.06583375 0.018469399 -0.021812107 -0.05968635 0.12677209 -0.012760558 0.061090797 -0.13626853
0.17682655 0.082481116 0.011604505 -0.052022062 -0.033261385 0.1478725 -0.07689324 0.1282618
0.048391987 0.012817304 -0.024633912 -0.048070163 -0.117199026 0.037437174 -0.06929534 0.13658217
-0.14959064 0.118965134 -0.009335607 0.09708367 -0.113346964 -0.01497025 -0.007293048 -0.013038977
0.14078611 -0.055695787 0.03553097 0.090597965 0.022689579 -0.041781407 -0.10925246 0.12579213
-0.06088871 -0.15856676 -0.123264395 -0.15926935 -0.07234102 -0.04295067 -0.100295715 -0.09812853
0.12517089 0.12170203 -0.08944892 -0.07403661 -0.16186838 0.08463115 0.0630319 -0.06974531
0.011930826 0.052218977 0.0013854939 -0.14892629 0.053819686 0.04930034 -0.022847503 0.07188824
0.07805777 -0.13676958 0.10472526 0.11062943 0.16329086 0.092982315 -0.048762433 -0.060866885
0.09217897 -0.08522753 -0.18012573 -0.0014088152 0.13841815 0.13804775 -0.011808823 0.04665011
0.086840875 0.04160883 0.1255876 0.14071196 0.05447594 0.13344395 -0.016424978 -0.106971
0.106722124 0.16983207 0.15646581 0.12592778 -0.08445365 -0.0002957967 0.16394003 0.07428021
0.060210828 0.08007766 0.0715916 0.18876404 0.010717624 0.15085697 0.06907298 -0.09588001
0.21259235 0.025860783 0.039455075 0.20807567 -0.07244795 0.04106519 0.013140579 0.20024294
0.06542816 0.03428501 -0.09678142 0.046037428 0.13350855 -0.015798222 0.01704849 -0.12080715
-0.03941654 -0.12947361 -0.004612592 0.17907496 -0.13675869 0.029433431 -0.010192002 -0.006128784
-0.03140496 0.013814987 -0.080683246 0.112917684 0.10418919 0.17099054 -0.013192254 -0.095053315
0.06540673 0.12740217 0.1113015 0.067147434 0.06433378 0.017164975 -0.057702225 0.087615654
00000000: 21e4 7ebd 76e8 ab3c 35aa 6a3d ca6e 993d
00000010: 52de aa3d 6f44 633d 17c2 c6bd 084a f8bd
00000020: 7686 2fbc 00e1 923c 8748 903d 5a76 3b3e
00000030: 1da7 c73d e679 103c ee65 143d 0f83 543c
00000040: bcc5 373e 88d3 8c3d c941 773c 0e63 313e
00000050: a6ef d13c 6947 253e 69fc b2bd 4d9f 78bd
00000060: 729d a53d f8a3 aa3d af23 b53d a614 2c3e
00000070: a953 ac3c 0c96 0d3e 3c25 69ba 2c37 d33d
00000080: c98b edbd 03b1 ccbc b19d 093d 0fc1 073d
00000090: aef4 893d a1c1 36bb 183c cb3d a67d c6bd
000000a0: 1b6e 2dbc a37f 1cbe 24ee 1f3e 56ad adbc
000000b0: 4112 90bc e47c 8d3d 9435 f73d 2e69 833a
000000c0: 329c be3d 775a 2e3e e47e 25be 9653 b63c
000000d0: 622b 60bd 2705 37bd 62d5 c23d 370d 23be
000000e0: 29d0 3b3d 9c7e 2c3d 746d c33d a439 90bd
000000f0: be21 a6bd 0566 4b3d d05a 89bd 9689 44bc
00000100: 7ff3 38bd ab58 4e3e 11b0 1e3e 4b38 14bd
00000110: 0abf a83d 17dc 223e 573b d5bc 39ae 13be
00000120: e037 aabd 5210 c43d f192 6f3e 6668 af3d
00000130: 35bb 9bbd 2cf4 f8bd 2a49 5a3d edd0 8b3d
00000140: f351 733e 6333 6cbc 3554 0e3c b8c7 b03d
00000150: dd26 0bbd c361 073e 1d81 10bd 4c2b c03d
00000160: 6473 d83c f81e 7e3a 3884 e13d 2dc6 47bd
00000170: 4b88 b23d 77fa 0b3c 65cf 173d c9e5 753d
00000180: 2320 c73d 201b d93d 432b 553d 2afc 543d
00000190: 341a 383e 1176 3fbd 3899 b93c 277e 1cbd
000001a0: 7d4d e63d e70f 1abe 0c76 4a3d 3589 1abd
000001b0: e09c 0cbe a7ec 783d dfe9 9e3d d227 123d
000001c0: d8d3 86bd 234d 973c 4eaf b2bc ad79 74bd
000001d0: 8bd0 013e a911 51bc 583a 7a3d fa89 0bbe
000001e0: 0512 353e dceb a83d d220 3e3c 1615 55bd
000001f0: 173d 08bd e36b 173e 347a 9dbd 1057 033e
00000200: ad36 463d abff 513c 0fcd c9bc 38e5 44bd
00000210: 0b06 f0bd b957 193d b7ea 8dbd 32dc 0b3e
00000220: 4a2e 19be fea3 f33d 60f4 18bc ced3 c63d
00000230: 7422 e8bd c845 75bc 85fa eebb 6fa1 55bc
00000240: 3c2a 103e 4421 64bd ec88 113d 6d8b b93d
00000250: 7fdf b93c fb22 2bbd c1bf dfbd a7cf 003e
00000260: 7166 79bd 535f 22be 0b72 fcbd 8117 23be
00000270: 8727 94bd 0bed 2fbd d767 cdbd 9cf7 c8bd
00000280: cc2c 003e ea3e f93d ff30 b7bd 82a0 97bd
00000290: d3c0 25be 1953 ad3d de16 813d a1d6 8ebd
000002a0: 8379 433c 91e3 553d 7699 b53a 2280 18be
000002b0: 0872 5c3d 27ef 493d b02a bbbc 243a 933d
000002c0: c1dc 9f3d 530d 0cbe 327a d63d af91 e23d
000002d0: b835 273e 836d be3d 1ebb 47bd 8e4f 79bd
000002e0: 54c8 bc3d c58b aebd e172 38be fea7 b8ba
000002f0: 7dbd 0d3e 645c 0d3e cb79 41bc 3014 3f3d
00000300: a1d9 b13d 056e 2a3d 099a 003e cc16 103e
00000310: 2a22 5f3d 88a5 083e ad8d 86bc 9d13 dbbd
00000320: 2191 da3d 75e8 2d3e 9338 203e 36f3 003e
00000330: 09f6 acbd 2915 9bb9 e5df 273e 3920 983d
00000340: a19f 763d c2ff a33d 9e9e 923d 5c4b 413e
00000350: f998 2f3c 407a 1a3e 2276 8d3d bd5c c4bd
00000360: cfb1 593e fed9 d33c a59b 213d ca11 553e
00000370: 975f 94bd f933 283d 954b 573c 7c0c 4d3e
00000380: 33ff 853d 706e 0c3d 5635 c6bd be91 3c3d
00000390: 77b6 083e 466b 81bc 46a9 8b3c bd69 f7bd
000003a0: 3d73 21bd bb94 04be 3a25 97bb 6d5f 373e
000003b0: 780a 0cbe 611e f13c 5bfc 26bc f7d3 c8bb
000003c0: 7da2 00bd 4158 623c 423d a5bd 6341 e73d
000003d0: 2461 d53d 2518 2f3e 5324 58bc 50ab c2bd
000003e0: f7f3 853d b775 023e 0af2 e33d 9884 893d
000003f0: 6ec1 833d 909d 8c3c 2b59 6cbd d66f b33d

weight_ih_l1 f4 [256, 64]
0.071435615 -0.09875721 0.09997735 0.06132239 -0.00796607 0.048263796 0.018053195 0.04811278
0.05613491 0.08076684 0.22968985 0.07124215 -0.060028397 -0.031195808 0.093740374 -0.0013208622
0.06964766 -0.07504823 -0.07278496 0.103700414 0.03129158 0.17448924 -0.00068492285 -0.017307792
-0.07375652 0.009190613 0.095710136 -0.024446758 -0.03685939 0.20343977 -0.022384916 0.14779797
-0.11410557 -0.023757957 0.04397175 -0.070824556 0.13688706 -0.2531492 -0.20435494 0.005282942
0.08939962 -0.06475816 -0.041797046 0.06457083 0.016393404 0.06944124 0.097109936 -0.051094726
-0.124603845 0.13940576 0.0665965 -0.16989827 0.1328018 0.054910254 -0.0028250765 0.16307946
0.038948108 -0.11851317 -0.08713847 0.16867347 0.016231801 0.068310305 0.15801105 0.026006682
0.033571742 -0.19556475 0.0032576015 -0.041217633 0.13905333 0.040114738 -0.07001833 -0.050165717
-0.019742629 0.04747267 0.016614435 0.029294351 0.05006391 -0.17589374 -0.08826188 0.101758696
0.032851186 -0.0115614645 -0.11136558 -0.025503911 0.021977974 0.06325452 -0.09220128 -0.0068008895
-0.007322469 0.15159532 0.03582124 -0.002647712 0.10443023 0.07929782 -0.13684158 0.17629792
0.06822076 0.083684556 0.021257604 0.059754536 0.048787594 -0.1330607 -0.041981366 0.05308161
0.019155296 5.0383656e-05 0.0021066687 0.047296606 -0.037979003 -0.09991232 -0.108735554 0.055158846
-0.0016790956 0.20761856 -0.044523276 -0.15351203 -0.051280297 -0.07842369 0.08518658 -0.022645116
-0.17599282 -0.101777986 0.010741983 0.04292212 -0.019662704 0.043359283 0.09993402 0.04732734
0.04090122 5.206122e-05 -0.040594153 0.10578456 0.06905421 -0.14799887 0.04642473 -0.108581476
0.12617019 -0.05163748 0.075538635 0.0021802266 0.034819413 -0.04808339 0.08787323 -0.009554789
0.044445988 0.05245802 0.0029523512 -0.13969582 -0.05858935 0.051778812 -0.12060857 -0.14937156
0.013622886 0.029530587 -0.036463715 -0.08008503 -0.060753055 0.11279719 -0.07138723 -0.04802925
-0.16441947 0.09984481 -0.105903 -0.09267783 0.089330934 0.016224746 -0.086474255 0.040919527
0.08305581 -0.097226135 0.0544172 0.07762177 0.07092666 -0.1120411 0.026670437 0.12019043
-0.1186468 0.05653846 -0.051661074 -0.09043666 -0.064440764 0.027272837 -0.04794485 -0.042980008
-0.12975802 0.022549927 -0.10423724 0.07993474 0.059711445 -0.06250417 0.11484014 0.07081436
-0.043626983 -0.10283659 0.05607435 -0.061504245 -0.030288026 -0.015533423 0.10806023 -0.154967
0.050353806 0.025886713 0.1801705 0.015602633 -0.0717037 -0.27342948 0.041373976 0.039953746
-0.030016845 0.04160779 -0.17955408 0.042591576 0.04136776 0.14418651 -0.12221193 -0.14727199
-0.027476536 0.02682862 -0.079023525 0.09608026 0.010361251 0.033931226 -0.011995642 0.064855896
0.118798375 0.04800563 0.031953532 0.12258783 0.21651164 -0.19971533 -0.035360157 0.20407866
0.0755493 -0.05984122 0.100020416 0.07856014 -0.15325382 -0.021371594 0.04956444 -0.044090662
-0.055643134 0.10631538 0.11630575 -0.01018024 0.0480032 0.03997883 0.019213155 0.048912227
-0.0458703 -0.15293454 0.11416234 -0.03951063 0.096044905 0.11032968 0.12053087 -0.02199841
00000000: d64c 923d 3841 cabd edc0 cc3d 302d 7b3d
00000010: 1f84 02bc 42b0 453d 4be4 933c e811 453d
00000020: b8ed 653d 1669 a53d d133 6b3e 68e7 913d
00000030: 56e0 75bd 5a8e ffbc f4fa bf3d c820 adba
00000040: 6fa3 8e3d e3b2 99bd 4810 95bd e260 d43d
00000050: 9a2b 003d 4fad 323e 658c 33ba 12c9 8dbc
00000060: a90d 97bd 3a94 163c ad03 c43d 9144 c8bc
00000070: dff9 16bd 8452 503e 9260 b7bc 5a58 173e
00000080: 2eb0 e9bd 0ca0 c2bc b91b 343d 770c 91bd
00000090: 1f2c 0c3e c69c 81be 6c42 51be 881c ad3b
000000a0: 2617 b73d ed9f 84bd 6133 2bbd b63d 843d
000000b0: 764b 863c 3537 8e3d 93e1 c63d b448 51bd
000000c0: 4d30 ffbd 62c0 0e3e bf63 883d d0f9 2dbe
000000d0: 32fd 073e 93e9 603d eb24 39bb 4dfe 263e
000000e0: 0d88 1f3d 08b7 f2bd a775 b2bd bdb8 2c3e
000000f0: 8ef8 843c 46e6 8b3d a6cd 213e f70b d53c
00000100: 8682 093d 2042 48be 7c7d 553b d2d3 28bd
00000110: ff63 0e3e 5a4f 243d c565 8fbd 917a 4dbd
00000120: 4bbb a1bc b472 423d ff1a 883c b5fa ef3c
00000130: d10f 4d3d 7d1d 34be a5c2 b4bd dd66 d03d
00000140: f78e 063d 4c6c 3dbc a313 e4bd 94ed d0bc
00000150: 270b b43c 968b 813d 06d4 bcbd ffd9 debb
00000160: 52f1 efbb ce3b 1b3e 4bb9 123d 3c85 2dbb
00000170: 84df d53d e566 a23d 3320 0cbe 7187 343e
00000180: 53b7 8b3d cf62 ab3d 6d24 ae3c 2cc1 743d
00000190: 80d5 473d 1041 08be a7f4 2bbd 1a6c 593d
000001a0: 91eb 9c3c 0a53 5338 0910 0a3b 16ba 413d
000001b0: df8f 1bbd d59e ccbd bfb0 debd 3eee 613d
000001c0: 1915 dcba f699 543e 0a5e 36bd 4232 1dbe
000001d0: 4a0b 52bd 999c a0bd 4d76 ae3d 4082 b9bc
000001e0: 7637 34be fa70 d0bd 24ff 2f3c 1bcf 2f3d
000001f0: ae13 a1bc 8199 313d 35aa cc3d 50da 413d
00000200: 0a88 273d 4f5c 5a38 0e46 26bd 93a5 d83d
00000210: 4b6c 8d3d 048d 17be dc27 3e3d f75f debd
00000220: c232 013e d281 53bd 00b4 9a3d 22e2 0e3b
00000230: cd9e 0e3d 17f3 44bd e1f6 b33d b18b 1cbc
00000240: ff0c 363d 39de 563d 3c7c 413b 6c0c 0fbe
00000250: 63fb 6fbd 0516 543d a001 f7bd dcf4 18be
00000260: 8632 5f3c 21ea f13c fa5a 15bd 9f03 a4bd
00000270: 32d8 78bd 3702 e73d 7833 92bd 52ba 44bd
00000280: 945d 28be 707b cc3d ace3 d8bd e0cd bdbd
00000290: 23f3 b63d c2e9 843c 6a19 b1bd 3c9b 273d
000002a0: 2a19 aa3d 7f1e c7bd 92e4 5e3d 2af8 9e3d
000002b0: ff41 913d ce75 e5bd f67b da3c 6626 f63d
000002c0: 18fd f2bd df94 673d 909a 53bd db36 b9bd
000002d0: 85f9 83bd 496b df3c d261 44bd ce0b 30bd
000002e0: 49df 04be a0ba b83c 567a d5bd d3b4 a33d
000002f0: fd93 743d 3002 80bd 4f31 eb3d 1f07 913d
00000300: 35b2 32bd fd9b d2bd 38ae 653d e0eb 7bbd
00000310: 981e f8bc e67f 7ebc af4e dd3d abaf 1ebe
00000320: cb3f 4e3d 5f10 d43c 9e7e 383e 30a2 7f3c
00000330: 64d9 92bd f3fe 8bbe c277 293d 8aa6 233d
00000340: e3e5 f5bc ee6c 2a3d 06dd 37be 8174 2e3d
00000350: 3e71 293d a1a5 133e 404a fabd 78ce 16be
00000360: 7916 e1bc b2c7 db3c 16d7 a1bd bac5 c43d
00000370: 3dc2 293c 78fb 0a3d 5f89 44bc 2bd3 843d
00000380: 904c f33d 8da1 443d b5e1 023d 540f fb3d
00000390: 3ab5 5d3e 2d82 4cbe d0d5 10bd fff9 503e
000003a0: 97b9 9a3d 111c 75bd 81d7 cc3d 24e4 a03d
000003b0: 92ee 1cbe 7b13 afbc 1504 4b3d 6998 34bd
000003c0: 0eea 63bd e1bb d93d b631 ee3d 05cb 26bc
000003d0: 019f 443d d7c0 233d e864 9d3c 3058 483d
000003e0: 7fe2 3bbd df9a 1cbe f2cd e93d e6d5 21bd
000003f0: 31b3 c43d 87f4 e13d e4d8 f63d 0236 b4bc

weight_hh_l1 f4 [256, 64]
-0.20573018 0.11002096 -0.051425327 -0.16079357 0.013099565 0.04475583 -0.09343886 -0.08428296
0.015733728 -0.15390038 -0.0019436372 0.07302981 0.04013887 0.12130309 0.08942981 0.099044405
0.005965045 0.20870608 -0.046598375 -0.046193026 -0.04020965 0.10249751 0.111133926 -0.13862446
0.109807745 0.1543872 0.14000289 -0.085702345 0.053092804 0.0057874196 -0.047622643 0.027487066
0.10923587 -0.07935072 -0.06834982 0.15390618 0.06834019 -0.05338553 -0.107086025 0.10306452
-0.014086284 -0.079261124 -0.02481955 -0.16141282 -0.11382999 0.0013915899 0.03562631 -0.035967212
0.015470117 0.027279865 0.047149718 0.12174497 -0.008810754 0.099657185 -0.065831006 0.030823315
-0.063906096 -0.11574877 -0.09209967 -0.06851197 0.045656584 0.026643716 -0.0079201795 0.07390502
-0.13955238 -0.0033210397 0.1914613 -0.05852876 -0.10082924 0.029909654 -0.08621581 -0.12976961
-0.1064924 0.08850924 -0.068994045 0.031633634 -0.087367415 0.06937226 -0.032985073 0.19918598
0.057951946 0.0021423995 -0.06940227 -0.07011714 -0.11847246 0.102148466 0.10279345 0.058911122
-0.094808415 0.13917336 -0.04308807 -0.053991534 -0.13736688 0.012224127 -0.020898778 0.0065018553
-0.07861043 0.009817472 -0.09774758 0.06406965 0.06654573 -0.088836655 0.01672574 -0.060187276
0.06780234 -0.024990967 0.07896813 0.026968665 0.05569489 -0.002260004 0.059099272 -0.032246497
0.03987662 0.10809305 -0.12360031 -0.05150283 0.041777898 -0.08115391 -0.112206936 -0.05744266
-0.09064852 -0.08091058 0.066362046 0.013158839 -0.051423784 -0.08380621 -0.08162544 -0.13187568
0.01646552 -0.123817444 -0.10683548 0.02447605 0.109180026 -0.108258024 -0.06866908 -0.2081712
-0.076006316 0.118958 0.048290335 -0.08831043 -0.13837075 -0.032348 0.09498587 -0.011458425
-0.15543617 0.13276 0.049787376 0.07209377 -0.015943749 0.16081029 -0.047311295 0.09403667
-0.112068385 0.094948106 0.034180146 -0.033936523 -0.042486746 -0.18099953 0.09518629 -0.08665634
0.121678844 0.098354936 0.025028633 0.19420111 -0.09059456 -0.07117285 0.067023255 -0.04212039
-0.2125673 0.031431887 -0.1829115 -0.13778274 0.003370175 0.04683631 -0.088546894 -0.12343727
0.11040709 -0.0105084395 -0.08257172 -0.22570623 -0.054014985 0.01291427 -0.020259323 0.06751721
0.08548337 -0.19333048 0.053142924 0.16769972 -0.008017607 0.109171465 -0.022262111 -0.112029605
-0.09165798 -0.027157877 0.11197033 -0.08655422 -0.07462912 -0.0770778 0.042480577 -0.08851035
-0.10624369 -0.02493481 -0.005681688 -0.043721523 -0.07946221 -0.038904913 0.0015082655 -0.0036593433
-0.068204336 0.061046224 -0.09033315 0.036896612 0.11262755 -0.103426106 -0.060448512 -0.071996085
0.05143537 -0.040032517 0.019620784 0.074922994 0.119572386 -0.108815484 -0.033221804 0.031882856
0.03548658 -0.030668393 0.04213587 -0.0560473 -0.037786327 0.06403795 0.12714425 0.006701476
-0.012458764 0.046269998 0.0010062715 -0.037756316 -0.024894545 -0.034969814 -0.008315332 -0.08872633
-0.011577145 0.17430314 0.07774376 -0.09966808 -0.0018249832 -0.022801537 -0.02700288 0.08617112
0.022117162 0.03799042 -0.113615595 0.066067055 0.06998352 -0.03976825 -0.09197312 0.011121157
00000000: efaa 52be ab52 e13d 5da3 52bd 12a7 24be
00000010: 8f9f 563c e451 373d df5c bfbd 8b9c acbd
00000020: 05e4 803c 1098 1dbe a4c1 feba a790 953d
00000030: a868 243d c16d f83d fa26 b73d cbd7 ca3d
00000040: 6d76 c33b 0cb7 553e f0dd 3ebd e634 3dbd
00000050: e0b2 24bd 37ea d13d 2f9a e33d 92f3 0dbe
00000060: e2e2 e03d ae17 1e3e eb5c 0f3e b684 afbd
00000070: d777 593d 65a4 bd3b f60f 43bd 8e2c e13c
00000080: 0eb7 df3d a182 a2bd fefa 8bbd 9599 1d3e
00000090: f1f5 8b3d c9aa 5abd eb4f dbbd 7e13 d33d
000000a0: 28ca 66bc a853 a2bd 5e52 cbbc 6749 25be
000000b0: b31f e9bd 0266 b63a e5ec 113d 5b52 13bd
000000c0: 6076 7d3c 067a df3c 1020 413d 6d55 f93d
000000d0: fb5a 10bc 1119 cc3d 68d2 86bd 2d81 fc3c
000000e0: 33e1 82bd b10d edbd c09e bcbd 0150 8cbd
000000f0: 6602 3b3d ec43 da3c a4c3 01bc 845b 973d
00000100: d2e6 0ebe cda5 59bb 6e0e 443e dabb 6fbd
00000110: 907f cebd 1705 f53c ea91 b0bd 53e2 04be
00000120: b018 dabd 5544 b53d c04c 8dbd 4592 013d
00000130: b0ed b2bd 0b13 8e3d 5b1b 07bd 69f7 4b3e
00000140: 055f 6d3d 8067 0c3b c722 8ebd 9399 8fbd
00000150: b0a1 f2bd 3733 d13d 5f85 d23d ca4c 713d
00000160: ea2a c2bd 7683 0e3e 1e7d 30bd 3a26 5dbd
00000170: e7a9 0cbe b447 483c ea33 abbc 840d d53b
00000180: 81fe a0bd 76d9 203c e22f c8bd f336 833d
00000190: 2149 883d feef b5bd 6b04 893c ef86 76bd
000001a0: f4db 8a3d dbb9 ccbc 0bba a13d 64ed dc3c
000001b0: 5320 643d 931c 14bb 1412 723d e714 04bd
000001c0: ab55 233d e45f dd3d 2922 fdbd a2f4 52bd
000001d0: 4d1f 2b3d 0534 a6bd c0cc e5bd ff48 6bbd
000001e0: eea5 b9bd 72b4 a5bd d3e8 873d 2c98 573c
000001f0: bfa1 52bd 97a2 abbd 3d2b a7bd 6b0a 07be
00000200: b3e2 863c 0094 fdbd 8fcc dabd ff81 c83c
00000210: c799 df3d 62b6 ddbd 60a2 8cbd d52a 55be
00000220: 33a9 9bbd 40a0 f33d 16cc 453d 19dc b4bd
00000230: 10b1 0dbe 567f 04bd f487 c23d 1ebc 3bbc
00000240: a92a 1fbe 3df2 073e d9ed 4b3d e6a5 933d
00000250: 779c 82bc 74ab 243e 7dc9 41bd 4c96 c03d
00000260: 1c84 e5bd 2774 c23d 7b00 0c3d 0601 0bbd
00000270: 9506 2ebd f157 39be 08f1 c23d e178 b1bd
00000280: c232 f93d 506e c93d d908 cd3c a8dc 463e
00000290: a489 b9bd 12c3 91bd 7d43 893d 6e86 2cbd
000002a0: 3eab 59be b9be 003d 274d 3bbe eb16 0dbe
000002b0: 27de 5c3b 6ed7 3f3d 1358 b5bd aecc fcbd
000002c0: 1d1d e23d 972b 2cbc 5d1b a9bd 891f 67be
000002d0: d13e 5dbd 6096 533c e1f6 a5bc 7746 8a3d
000002e0: e811 af3d 6df8 45be 65ac 593d 7ab9 2b3e
000002f0: 485c 03bc 4a95 df3d 085f b6bc c76f e5bd
00000300: 2eb7 bbbd 327a debc b350 e53d 5743 b1bd
00000310: 27d7 98bd f7da 9dbd 1d00 2e3d ea44 b5bd
00000320: 4b96 d9bd 1644 ccbc 742d babb 5715 33bd
00000330: 15bd a2bd c25a 1fbd feb0 c53a 98d1 6fbb
00000340: b7ae 8bbd 9b0b 7a3d 9600 b9bd e720 173d
00000350: 46a9 e63d 11d1 d3bd dc98 77bd af72 93bd
00000360: e5ad 523d 23f9 23bd c4bb a03c 3a71 993d
00000370: 5ee2 f43d a7da debd 9613 08bd 9997 023d
00000380: 605a 113d 483c fbbc a996 2c3d db91 65bd
00000390: d6c5 1abd 5426 833d 1a32 023e 0e98 db3b
000003a0: d81f 4cbc 9c85 3d3d dee4 833a 5ea6 1abd
000003b0: a5ef cbbc 823c 0fbd 083d 08bc 26b6 b5bd
000003c0: 11ae 3dbc 867c 323e 1f38 9f3d c71e ccbd
000003d0: 4634 efba 4aca babc 2535 ddbc 7c7a b03d
000003e0: 0d2f b53c d89b 1b3d 4baf e8bd 2a4e 873d
000003f0: 8553 8f3d 08e4 22bd 675c bcbd 8335 363c

bias_ih_l1 f4 [256]
-0.068547964 0.06960808 -0.07738197 0.097266905 0.119594865 -0.14980854 0.014936834 -0.032968797
-0.035603996 -0.01316217 0.07406831 -0.019393597 -0.014344762 -0.03943131 -0.057673573 -0.034787737
0.06433073 0.055382676 0.08467132 -0.045843143 0.045579195 0.039916873 0.0151589 0.11538106
-0.14286575 0.12532373 0.08720017 0.18471281 0.1117671 -0.10524099 0.00012219734 -0.021088904
-0.08581049 -0.053264983 0.08897228 -0.021959068 -0.06194202 -0.041847553 -0.09746499 -0.04830669
-0.00014161044 0.13039467 -0.11817967 0.081176415 -0.13201523 0.012963841 0.07210716 0.045828246
0.062444087 -0.01759597 0.07307728 0.02029159 -0.03031375 0.08134778 -0.076282226 -0.045627926
-0.052249692 0.018646669 0.04501833 0.05206228 0.10787091 0.0106585305 0.083651096 -0.04393963
0.10508711 0.01775103 0.046681195 -0.012156748 -0.03228753 -0.11684249 0.1780123 0.01735313
-0.092789486 -0.07471125 0.06615543 -0.00062929804 0.09179102 -0.02575578 0.045512382 -0.044543296
-0.03737025 0.06833806 0.08891316 0.037443668 0.04036453 -0.096139416 0.10819274 0.13201721
-0.070664234 -0.03610162 0.045615405 0.09241278 -0.030508071 0.04523016 0.014153315 -0.03509232
-0.0035194426 -0.009376088 -0.028371707 -0.00897544 -0.093138106 0.12830113 0.046601538 0.06743813
-0.035524983 0.10748221 -0.037197817 -0.05689673 -0.11425558 -0.020114396 -0.019875804 -0.10709279
0.060873233 -0.06835506 0.09834388 0.14037631 -0.05619667 -0.035891254 -0.020931834 0.16167319
-0.08771705 -0.0817238 0.13457994 0.060065977 0.041389674 -0.07630097 -0.015162001 -0.039260272
-0.13201244 -0.114080444 0.03207613 -0.025960576 -0.08435826 -0.08296786 -0.023801599 -0.06887833
0.082560025 -0.047430936 -0.0354071 0.05793733 0.008889634 0.18177745 0.08417141 0.002420604
-0.046590216 -0.018431457 0.16076012 -0.06132291 0.028737905 -0.05393978 -0.12039657 -0.03658202
-0.10426934 0.13034137 0.04106774 -0.04362298 0.090363376 -0.028860444 0.08519898 0.07301259
0.08270969 -0.04532803 0.019433567 -0.042597644 -0.07251776 -0.0009091356 0.113723315 -0.077782
0.05742074 -0.018672256 0.037601106 0.07739759 0.06685581 -0.04934672 0.046409212 0.05898889
0.029164648 -0.07737412 0.10648458 0.09933958 -0.044704862 -0.10205626 -0.07174361 -0.034347374
-0.06763211 -0.121334255 -0.07618394 -0.11337473 -0.11942358 0.10426853 -0.1020125 0.045162607
0.13058022 0.226399 0.08258465 0.1888528 0.13449916 0.05568654 0.22256854 0.13289976
0.035224784 0.052802328 0.04798077 0.12361469 0.18063843 0.19146103 0.2011885 0.06815804
0.20223002 0.10078496 0.20916855 0.02138957 0.07633996 -0.05025521 -0.055959422 0.21541648
-0.13202094 0.16051471 0.2269483 0.01172613 0.09923292 -0.019439213 0.07742669 0.09639127
-0.03149548 -0.010203891 0.05360628 0.09966856 -0.030721921 0.11864905 -0.10694017 -0.0055827084
-0.0027934012 0.040263783 0.04485094 0.21564569 -0.09428063 -0.0071485876 0.10399272 0.08966227
0.13175939 -0.040526226 0.14589798 0.0075938823 0.23007056 -0.026173294 0.10853662 0.16692987
-0.0019343158 0.056191437 0.031706527 0.15148157 0.22162469 0.0929804 0.012459627 0.07158562
00000000: e062 8cbd ae8e 8e3d 707a 9ebd df33 c73d
00000010: 27ee f43d 6967 19be 9fb9 743c 4a0a 07bd
00000020: 7fd5 11bd 24a6 57bc 20b1 973d 52df 9ebc
00000030: 4b06 6bbc ba82 21bd 203b 6cbd 967d 0ebd
00000040: d4bf 833d f2d8 623d 2868 ad3d 05c6 3bbd
00000050: 40b1 3a3d e07f 233d 095d 783c e84c ec3d
00000060: 664b 12be dd54 003e 0196 b23d 5b25 3d3e
00000070: 26e6 e43d 9788 d7bd 1922 0039 a3c2 acbc
00000080: 69bd afbd 622c 5abd 1937 b63d 81e3 b3bc
00000090: eab6 7dbd 5768 2bbd ba9b c7bd 3cdd 45bd
000000a0: 437d 14b9 2e86 053e 2f08 f2bd d23f a63d
000000b0: 002f 07be 4a66 543c ebac 933d 66b6 3b3d
000000c0: 5fc5 7f3d 6c25 90bc 8aa9 953d 8c3a a63c
000000d0: 8b54 f8bc aa99 a63d db39 9cbd 59e4 3abd
000000e0: c603 56bd e6c0 983c 2465 383d 423f 553d
000000f0: 6ceb dc3d 1ea1 2e3c 4451 ab3d 0bfa 33bd
00000100: e937 d73d 9c6a 913c c834 3f3d 192d 47bc
00000110: ee3f 04bd 1e4b efbd db48 363e 2728 8e3c
00000120: 6a08 bebd 3602 99bd 807c 873d 7af7 24ba
00000130: eefc bb3d c9fd d2bc 316b 3a3d 0873 36bd
00000140: 8c11 19bd d3f4 8b3d 1a18 b63d 885e 193d
00000150: 4755 253d bee4 c4bd 2894 dd3d 852f 073e
00000160: 69b8 90bd 4bdf 13bd 38d7 3a3d e942 bd3d
00000170: 10ec f9bc 4343 393d 4ee3 673c f7bc 0fbd
00000180: 73a6 66bb 2a9e 19bc c86b e8bc b90d 13bc
00000190: 31bf bebd 5f61 033e 41e1 3e3d 011d 8a3d
000001a0: a582 11bd a21f dc3d bd5c 18bd 8c0c 69bd
000001b0: d4fe e9bd f2c6 a4bc 95d2 a2bc 7753 dbbd
000001c0: 3656 793d bdfd 8bbd 8468 c93d cfbe 0f3e
000001d0: 7b2e 66bd b502 13bd 3d79 abbc a88d 253e
000001e0: ffa4 b3bd cf5e a7bd 53cf 093e be07 763d
000001f0: 3888 293d af43 9cbd 0b6a 78bc 61cf 20bd
00000200: 452e 07be 02a3 e9bd 4362 033d 46ab d4bc
00000210: 06c4 acbd 0eeb a9bd 92fb c2bc 1510 8dbd
00000220: 3b15 a93d f146 42bd 0907 11bd b24f 6d3d
00000230: d4a5 113c de23 3a3e 0f62 ac3d ffa2 1e3b
00000240: 62d5 3ebd 91fd 96bc 4d9e 243e bb2d 7bbd
00000250: c16b eb3c f5ef 5cbd 7a92 f6bd 07d7 15bd
00000260: 2a8b d5bd 3578 053e a636 283d 03ae 32bd
00000270: 6f10 b93d bd6c ecbc ce7c ae3d a087 953d
00000280: b363 a93d e2a9 39bd 2533 9f3c de7a 2ebd
00000290: 3184 94bd 0f53 6eba c5e7 e83d 2b4c 9fbd
000002a0: 0332 6b3d 8ff6 98bc 9e03 1a3d a182 9e3d
000002b0: b3eb 883d c91f 4abd 9617 3e3d 569e 713d
000002c0: b3ea ee3c 5376 9ebd 9614 da3d 8d72 cb3d
000002d0: 721c 37bd df02 d1bd 50ee 92bd d5af 0cbd
000002e0: b482 8abd 187e f8bd 5306 9cbd 0331 e8bd
000002f0: 5a94 f4bd bd8a d53d eeeb d0bd 6dfc 383d
00000300: d2b6 053e 24d5 673e 2422 a93d a162 413e
00000310: 26ba 093e 9217 643d 02e9 633e e016 083e
00000320: dd47 103d 4147 583d 7c87 443d b329 fd3d
00000330: 48f9 383e 5c0e 443e 5c04 4e3e 7196 8b3d
00000340: 6315 4f3e 5868 ce3d 4830 563e 2e39 af3c
00000350: 2058 9c3d 68d8 4dbd b535 65bd 2396 5c3e
00000360: 7f30 07be f85d 243e 2365 683e f41e 403c
00000370: a13a cb3d fc3e 9fbc e291 9e3d c968 c53d
00000380: 6801 01bd 392e 27bc 4292 5b3d 081f cc3d
00000390: 8aac fbbc 46fe f23d 7303 dbbd 27ef b6bb
000003a0: 7f11 37bb a3eb 243d 9fb5 373d 39d2 5c3e
000003b0: 3416 c1bd b33e eabb 23fa d43d daa0 b73d
000003c0: efeb 063e d4fe 25bd 4866 153e 1ad6 f83b
000003d0: 9e97 6b3e 6069 d6bc 7348 de3d aaef 2a3e
000003e0: de88 fdba fe28 663d b4de 013d fc1d 1b3e
000003f0: 95f1 623e 826c be3d 7723 4c3c 7b9b 923d

bias_hh_l1 f4 [256]
0.05879518 0.03580293 0.08973616 0.15654266 -0.034704447 0.061231986 0.016297609 0.019481156
-0.02546742 0.10672013 0.028567487 0.012425407 0.0047090263 0.15791048 0.08259341 0.006051313
-0.013163664 -0.039576948 0.1383496 0.09913025 -0.03566532 -0.100167304 0.1409158 0.06003175
-0.09567975 -0.054617833 0.11335489 -0.044437587 0.12183972 -0.088201836 0.04685769 0.13190605
-0.20320159 0.021102898 -0.012192095 0.128434 0.10361009 0.097824745 -0.12579088 -0.104709096
0.077609465 0.12051673 -0.13856205 -0.03321359 -0.08684027 -0.12250398 -0.0018013094 -0.0372996
0.055126313 -0.060912576 0.049333584 0.098995395 0.01370732 0.012729731 -0.10312094 -0.027240451
0.0700361 0.14971854 -0.08101166 -0.014079853 -0.05004799 -0.036183108 0.09860798 0.1436033
0.09960941 -0.06911524 0.04672551 -0.047600247 0.12597996 -0.08394952 0.18885891 0.02897127
-0.041096464 0.1477156 0.09556872 0.08018793 0.08082108 0.07709761 0.08354128 0.11203313
-0.03974217 -0.064766325 0.026166763 -0.02808103 -0.0022282072 -0.060656525 -0.12041689 -0.0030231401
-0.04916275 0.061047263 0.1577406 0.08744526 0.17858455 -0.09298318 -0.013487716 -0.037611037
0.05393875 0.05764808 -0.04317718 0.13438536 0.014295508 0.022533758 -0.03443743 -0.011172106
0.1339859 -0.0019063285 0.05998315 0.070138276 -0.026829781 0.066900335 0.043846793 0.111733176
-0.100604504 0.037930574 0.00033390752 0.05243196 -0.019565566 -0.06650421 -0.0064722765 -0.041298036
0.077543266 0.0026753002 0.099348366 0.069070935 0.024771728 -0.06861384 -0.002052164 0.080980055
0.07469808 -0.03063393 -0.07666281 0.019582467 0.11388558 0.028476631 0.029582953 -0.12237563
0.081300735 0.05294599 0.09895663 -0.14903967 -0.15740156 -0.04340815 0.12908474 0.09666121
-0.056553796 -0.107148 0.13098697 0.08387561 -0.106117114 0.052516885 0.0489311 -0.04277536
-0.09808417 0.13840453 -0.056253262 -0.0051559336 0.021432761 -0.017576465 -0.010813897 -0.105938874
-0.09609998 -0.015246376 0.0027667154 0.095999524 -0.08677447 0.03511242 0.00054498465 -0.03220185
0.018164484 -0.13092233 0.08594574 0.021889731 0.040599823 0.010327347 -0.002795399 -0.066767074
0.10421453 0.09795065 0.0731624 -0.04215699 -0.14560063 0.028753992 0.09649409 0.029952247
-0.06549937 0.047951795 0.06982437 -0.037543472 -0.078736536 0.16152045 -0.11066203 -0.11299364
0.17725937 0.07412702 0.10206643 0.13578138 0.06980035 0.0060070115 0.17293908 0.16873576
-0.079898685 0.13402131 -0.035343595 0.1641722 0.038762327 0.28148153 -0.0042859367 0.21390344
0.19088611 0.04114181 -0.0074309176 0.21602157 0.06670027 -0.14758411 0.11990786 0.10835372
-0.15519716 0.05086534 0.13254078 0.12950996 0.19080912 0.0021570052 -0.043484323 0.21031462
0.040646154 -0.14866354 -0.09549649 0.20178036 0.19875176 0.05323673 0.03423488 -0.067152776
0.090608686 0.21450649 0.07722827 0.17931794 0.10665763 0.08964534 0.15614025 -0.05982773
0.14912008 0.087766685 0.17938219 0.17086911 0.15180272 0.15192385 0.17541267 0.27557704
-0.0436693 0.20783085 0.013929747 0.0128435455 0.028081294 0.097617954 -0.017872691 0.17983484
00000000: 37d3 703d 18a6 123d 98c7 b73d b84c 203e
00000010: 4026 0ebd 64ce 7a3d 9082 853c f296 9f3c
00000020: 0da1 d0bc 1590 da3d 5d06 ea3c ef93 4b3c
00000030: 2d4e 9a3b 49b3 213e bc26 a93d 184a c63b
00000040: 69ac 57bc 701b 22bd 84ab 0d3e cd04 cb3d
00000050: cc15 12bd 8424 cdbd 3b4c 103e dae3 753d
00000060: bff3 c3bd f3b6 5fbd 9c26 e83d 3004 36bd
00000070: 1a87 f93d 2aa3 b4bd d9ed 3f3d 6112 073e
00000080: 1414 50be fcdf ac3c 5ac1 47bc 3484 033e
00000090: 8731 d43d 5758 c83d 53cf 00be b971 d6bd
000000a0: b6f1 9e3d 7ad1 f63d 36e3 0dbe f90a 08bd
000000b0: 50d9 b1bd 5ee3 fabd ea19 ecba 77c7 18bd
000000c0: 21cc 613d 777f 79bd 0312 4a3d 19be ca3d
000000d0: ab94 603c 5d90 503c 1231 d3bd 5e27 dfbc
000000e0: 166f 8f3d d14f 193e 71e9 a5bd 2faf 66bc
000000f0: 1fff 4cbd bd34 14bd fbf2 c93d be0c 133e
00000100: 0500 cc3d 4a8c 8dbd 4063 3f3d 7af8 42bd
00000110: e400 013e baed abbd 3b64 413e 2855 ed3c
00000120: c454 28bd c242 173e 88b9 c33d 9239 a43d
00000130: 8685 a53d 5ae5 9d3d b117 ab3d a071 e53d
00000140: b0c8 22bd 35a4 84bd ae5b d63c 300a e6bc
00000150: 1d07 12bb fa72 78bd 219d f6bd e01f 46bb
00000160: e15e 49bd b20c 7a3d c086 213e 8016 b33d
00000170: dede 363e f76d bebd 95fb 5cbc 080e 1abd
00000180: e1ee 5c3d 6520 6c3d 8eda 30bd 519c 093e
00000190: b537 6a3c b798 b83c 430e 0dbd 350b 37bc
000001a0: 9a33 093e c5dd f9ba e4b0 753d a8a4 8f3d
000001b0: 21ca dbbc 0b03 893d b298 333d 5dd4 e43d
000001c0: bc09 cebd 175d 1b3d 4f10 af39 e5c2 563d
000001d0: f747 a0bc 5c33 88bd 6415 d4bb 2128 29bd
000001e0: 01cf 9e3d 1754 2f3b 2877 cb3d 1075 8d3d
000001f0: 14ee ca3c 6a85 8cbd 997d 06bb dfd8 a53d
00000200: 4ffb 983d 02f4 fabc 6401 9dbd 696b a03c
00000210: d83c e93d d347 e93c f357 f23c 13a0 fabd
00000220: 0081 a63d e5dd 583d c6a9 ca3d db9d 18be
00000230: e02d 21be bfcc 31bd ca2e 043e 50f6 c53d
00000240: f4a4 67bd 6970 dbbd 7321 063e fac6 ab3d
00000250: ee53 d9bd f21b 573d fa6b 483d 3735 2fbd
00000260: 5ae0 c8bd ebb9 0d3e d269 66bd 1bf3 a8bb
00000270: c293 af3c 85fc 8fbc c52c 31bc 7bf6 d8bd
00000280: 11d0 c4bd f0cb 79bc c851 353b 669b c43d
00000290: d0b6 b1bd 0ad2 0f3d 4ddd 0e3a 16e6 03bd
000002a0: afcd 943c 8110 06be 5204 b03d 1852 b33c
000002b0: 004c 263d 0834 293c 0333 37bb 2dbd 88bd
000002c0: 6d6e d53d 5a9a c83d 2bd6 953d cfac 2cbd
000002d0: 5518 15be 7e8d eb3c b29e c53d 6a5e f53c
000002e0: 8924 86bd 1a69 443d 1400 8f3d 2fc7 19bd
000002f0: 9f40 a1bd 9e65 253e c6a2 e2bd 3669 e7bd
00000300: 7b83 353e e8cf 973d 3408 d13d 460a 0b3e
00000310: 7cf3 8e3d 77d6 c43b f116 313e 11c9 2c3e
00000320: eca1 a3bd e23c 093e 72c4 10bd c21c 283e
00000330: 3fc5 1e3d 591e 903e 0b71 8cbb 8109 5b3e
00000340: a677 433e 5184 283d 0e7f f3bb c234 5d3e
00000350: 279a 883d 4a20 17be 4192 f53d 8ee8 dd3d
00000360: 01ec 1ebe 2d58 503d c5b8 073e 429e 043e
00000370: 7763 433e 8b5c 0d3b 9e1c 32bd b75c 573e
00000380: 957c 263d 413b 18be aa93 c3bd 839f 4e3e
00000390: 9585 4b3e c20e 5a3d e039 0c3d 6587 89bd
000003a0: 0c91 b93d 97a7 5b3e db29 9e3d 1f9f 373e
000003b0: 516f da3d fa97 b73d 3be3 1f3e ec0d 75bd
000003c0: efb2 183e 05bf b33d f7af 373e 50f8 2e3e
000003d0: 2c72 1b3e ed91 1b3e 619f 333e 6f18 8d3e
000003e0: 94de 32bd 9cd1 543e 9839 643c bc6d 523c
000003f0: be0a e63c eceb c73d c069 92bc a026 383e
